[net]
width=640
height=640
channels=3
letter_box=1

# Focus

[reorg]

[convolutional]
batch_normalize=1
filters=32
size=3
stride=1
pad=1
activation=silu

# Conv

[convolutional]
batch_normalize=1
filters=64
size=3
stride=2
pad=1
activation=silu

# C3

[convolutional]
batch_normalize=1
filters=32
size=1
stride=1
pad=1
activation=silu

[route]
layers=-2

[convolutional]
batch_normalize=1
filters=32
size=1
stride=1
pad=1
activation=silu

[convolutional]
batch_normalize=1
filters=32
size=1
stride=1
pad=1
activation=silu

[convolutional]
batch_normalize=1
filters=32
size=3
stride=1
pad=1
activation=silu

[shortcut]
from=-3
activation=linear

[route]
layers=-1, -6

[convolutional]
batch_normalize=1
filters=64
size=1
stride=1
pad=1
activation=silu

# Conv

[convolutional]
batch_normalize=1
filters=128
size=3
stride=2
pad=1
activation=silu

# C3

[convolutional]
batch_normalize=1
filters=64
size=1
stride=1
pad=1
activation=silu

[route]
layers=-2

[convolutional]
batch_normalize=1
filters=64
size=1
stride=1
pad=1
activation=silu

[convolutional]
batch_normalize=1
filters=64
size=1
stride=1
pad=1
activation=silu

[convolutional]
batch_normalize=1
filters=64
size=3
stride=1
pad=1
activation=silu

[shortcut]
from=-3
activation=linear

[convolutional]
batch_normalize=1
filters=64
size=1
stride=1
pad=1
activation=silu

[convolutional]
batch_normalize=1
filters=64
size=3
stride=1
pad=1
activation=silu

[shortcut]
from=-3
activation=linear

[convolutional]
batch_normalize=1
filters=64
size=1
stride=1
pad=1
activation=silu

[convolutional]
batch_normalize=1
filters=64
size=3
stride=1
pad=1
activation=silu

[shortcut]
from=-3
activation=linear

[route]
layers=-1, -12

[convolutional]
batch_normalize=1
filters=128
size=1
stride=1
pad=1
activation=silu

# Conv

[convolutional]
batch_normalize=1
filters=256
size=3
stride=2
pad=1
activation=silu

# C3

[convolutional]
batch_normalize=1
filters=128
size=1
stride=1
pad=1
activation=silu

[route]
layers=-2

[convolutional]
batch_normalize=1
filters=128
size=1
stride=1
pad=1
activation=silu

[convolutional]
batch_normalize=1
filters=128
size=1
stride=1
pad=1
activation=silu

[convolutional]
batch_normalize=1
filters=128
size=3
stride=1
pad=1
activation=silu

[shortcut]
from=-3
activation=linear

[convolutional]
batch_normalize=1
filters=128
size=1
stride=1
pad=1
activation=silu

[convolutional]
batch_normalize=1
filters=128
size=3
stride=1
pad=1
activation=silu

[shortcut]
from=-3
activation=linear

[convolutional]
batch_normalize=1
filters=128
size=1
stride=1
pad=1
activation=silu

[convolutional]
batch_normalize=1
filters=128
size=3
stride=1
pad=1
activation=silu

[shortcut]
from=-3
activation=linear

[route]
layers=-1, -12

[convolutional]
batch_normalize=1
filters=256
size=1
stride=1
pad=1
activation=silu

# Conv

[convolutional]
batch_normalize=1
filters=512
size=3
stride=2
pad=1
activation=silu

# SPP

[convolutional]
batch_normalize=1
filters=256
size=1
stride=1
pad=1
activation=silu

[maxpool]
stride=1
size=5

[route]
layers=-2

[maxpool]
stride=1
size=9

[route]
layers=-4

[maxpool]
stride=1
size=13

[route]
layers=-6, -5, -3, -1

[convolutional]
batch_normalize=1
filters=512
size=1
stride=1
pad=1
activation=silu

# C3

[convolutional]
batch_normalize=1
filters=256
size=1
stride=1
pad=1
activation=silu

[route]
layers=-2

[convolutional]
batch_normalize=1
filters=256
size=1
stride=1
pad=1
activation=silu

[convolutional]
batch_normalize=1
filters=256
size=1
stride=1
pad=1
activation=silu

[convolutional]
batch_normalize=1
filters=256
size=3
stride=1
pad=1
activation=silu

[route]
layers=-1, -5

[convolutional]
batch_normalize=1
filters=512
size=1
stride=1
pad=1
activation=silu

# Conv

[convolutional]
batch_normalize=1
filters=256
size=1
stride=1
pad=1
activation=silu

# nn.Upsample

[upsample]
stride=2

# Concat

[route]
layers=-1, 40

# C3

[convolutional]
batch_normalize=1
filters=128
size=1
stride=1
pad=1
activation=silu

[route]
layers=-2

[convolutional]
batch_normalize=1
filters=128
size=1
stride=1
pad=1
activation=silu

[convolutional]
batch_normalize=1
filters=128
size=1
stride=1
pad=1
activation=silu

[convolutional]
batch_normalize=1
filters=128
size=3
stride=1
pad=1
activation=silu

[route]
layers=-1, -5

[convolutional]
batch_normalize=1
filters=256
size=1
stride=1
pad=1
activation=silu

# Conv

[convolutional]
batch_normalize=1
filters=128
size=1
stride=1
pad=1
activation=silu

# nn.Upsample

[upsample]
stride=2

# Concat

[route]
layers=-1, 25

# C3

[convolutional]
batch_normalize=1
filters=64
size=1
stride=1
pad=1
activation=silu

[route]
layers=-2

[convolutional]
batch_normalize=1
filters=64
size=1
stride=1
pad=1
activation=silu

[convolutional]
batch_normalize=1
filters=64
size=1
stride=1
pad=1
activation=silu

[convolutional]
batch_normalize=1
filters=64
size=3
stride=1
pad=1
activation=silu

[route]
layers=-1, -5

[convolutional]
batch_normalize=1
filters=128
size=1
stride=1
pad=1
activation=silu

# Conv

[convolutional]
batch_normalize=1
filters=128
size=3
stride=2
pad=1
activation=silu

# Concat

[route]
layers=-1, 67

# C3

[convolutional]
batch_normalize=1
filters=128
size=1
stride=1
pad=1
activation=silu

[route]
layers=-2

[convolutional]
batch_normalize=1
filters=128
size=1
stride=1
pad=1
activation=silu

[convolutional]
batch_normalize=1
filters=128
size=1
stride=1
pad=1
activation=silu

[convolutional]
batch_normalize=1
filters=128
size=3
stride=1
pad=1
activation=silu

[route]
layers=-1, -5

[convolutional]
batch_normalize=1
filters=256
size=1
stride=1
pad=1
activation=silu

# Conv

[convolutional]
batch_normalize=1
filters=256
size=3
stride=2
pad=1
activation=silu

# Concat

[route]
layers=-1, 57

# C3

[convolutional]
batch_normalize=1
filters=256
size=1
stride=1
pad=1
activation=silu

[route]
layers=-2

[convolutional]
batch_normalize=1
filters=256
size=1
stride=1
pad=1
activation=silu

[convolutional]
batch_normalize=1
filters=256
size=1
stride=1
pad=1
activation=silu

[convolutional]
batch_normalize=1
filters=256
size=3
stride=1
pad=1
activation=silu

[route]
layers=-1, -5

[convolutional]
batch_normalize=1
filters=512
size=1
stride=1
pad=1
activation=silu

# Detect

[route]
layers=76

[convolutional]
filters=255
size=1
stride=1
pad=1
activation=logistic

[yolo]
mask=0, 1, 2
anchors=… classes=80
num=9
scale_x_y=2.0
beta_nms=0.6
new_coords=1

# Detect

[route]
layers=85

[convolutional]
filters=255
size=1
stride=1
pad=1
activation=logistic

[yolo]
mask=3, 4, 5
anchors=… classes=80
num=9
scale_x_y=2.0
beta_nms=0.6
new_coords=1

# Detect

[route]
layers=94

[convolutional]
filters=255
size=1
stride=1
pad=1
activation=logistic

[yolo]
mask=6, 7, 8
anchors=… classes=80
num=9
scale_x_y=2.0
beta_nms=0.6
new_coords=1
